…
        keras.Input(shape=(28, 28, 1)),
        layers.Conv2D(64, (3, 3), strides=(2, 2), padding="same"),
        layers.LeakyReLU(alpha=0.2),
        layers.Conv2D(128, (3, 3), strides=(2, 2), padding="same"),
        layers.LeakyReLU(alpha=0.2),
        layers.GlobalMaxPooling2D(),
        layers.Dense(1),
    ],
    name="discriminator",
)
discriminator.summary()
Model: "discriminator"
_________________________________________________________________
 Layer (type)                Output Shape              Param #   
=================================================================
 conv2d (Conv2D)             (None, 14, 14, 64)        640       

 leaky_re_lu (LeakyReLU)     (None, 14, 14, 64)        0         

 conv2d_1 (Conv2D)           (None, 7, 7, 128)         73856     

 leaky_re_lu_1 (LeakyReLU)   (None, 7, 7, 128)         0         

 global_max_pooling2d (Glob  (None, 128)               0         
 alMaxPooling2D)                                                 

 dense_4 (Dense)             (None, 1)                 129       

=================================================================
Total params: 74625 (291.50 KB)
Trainable params: 74625 (291.50 KB)
Non-trainable params: 0 (0.00 Byte)
_________________________________________________________________
Then let's create a generator network, that turns latent vectors into outputs of shape  (representing MNIST digits):latent_dim = 128

generator = keras.Sequential(
…
