…
        keras.Input(shape=(28, 28, 1)),
        layers.Conv2D(64, (3, 3), strides=(2, 2), padding="same"),
        layers.LeakyReLU(alpha=0.2),
        layers.Conv2D(128, (3, 3), strides=(2, 2), padding="same"),
        layers.LeakyReLU(alpha=0.2),
        layers.GlobalMaxPooling2D(),
        layers.Dense(1),
    ],
    name="discriminator",
)
discriminator.summary()
Model: "discriminator"
_________________________________________________________________
 Layer (type)                Output Shape              Param #   
=================================================================
 conv2d (Conv2D)             (None, 14, 14, 64)        640       

 leaky_re_lu (LeakyReLU)     (None, 14, 14, 64)        0         

 conv2d_1 (Conv2D)           (None, 7, 7, 128)         73856     

 leaky_re_lu_1 (LeakyReLU)   (None, 7, 7, 128)         0         

 global_max_pooling2d (Glob  (None, 128)               0         
 alMaxPooling2D)                                                 

 dense_4 (Dense)             (None, 1)                 129       

=================================================================
Total params: 74625 (291.50 KB)
Trainable params: 74625 (291.50 KB)
Non-trainable params: 0 (0.00 Byte)
_________________________________________________________________
Then let's create a generator network, that turns latent vectors into outputs of shape  (representing MNIST digits):latent_dim = 128

generator = keras.Sequential(
…
x = layers.Conv2DTranspose(32, 3, activation="relu")(x)
x = layers.UpSampling2D(3)(x)
x = layers.Conv2DTranspose(16, 3, activation="relu")(x)
decoder_output = layers.Conv2DTranspose(1, 3, activation="relu")(x)

autoencoder = keras.Model(encoder_input, decoder_output, name="autoencoder")
autoencoder.summary()
Model: "encoder"
_________________________________________________________________
 Layer (type)                Output Shape              Param #   
=================================================================
 img (InputLayer)            [(None, 28, 28, 1)]       0         

 conv2d (Conv2D)             (None, 26, 26, 16)        160       

 conv2d_1 (Conv2D)           (None, 24, 24, 32)        4640      

 max_pooling2d (MaxPooling2  (None, 8, 8, 32)          0         
 D)                                                              

 conv2d_2 (Conv2D)           (None, 6, 6, 32)          9248      

 conv2d_3 (Conv2D)           (None, 4, 4, 16)          4624      

 global_max_pooling2d (Glob  (None, 16)                0         
 alMaxPooling2D)                                                 

=================================================================
Total params: 18672 (72.94 KB)
Trainable params: 18672 (72.94 KB)
Non-trainable params: 0 (0.00 Byte)
_________________________________________________________________
Model: "autoencoder"
_________________________________________________________________
 Layer (type)                Output Shape              Param #   
=================================================================
 img (InputLayer)            [(None, 28, 28, 1)]       0         

 conv2d (Conv2D)             (None, 26, 26, 16)        160       

 conv2d_1 (Conv2D)           (None, 24, 24, 32)        4640      

 max_pooling2d (MaxPooling2  (None, 8, 8, 32)          0         
 D)                                                              

 conv2d_2 (Conv2D)           (None, 6, 6, 32)          9248      

 conv2d_3 (Conv2D)           (None, 4, 4, 16)          4624      

 global_max_pooling2d (Glob  (None, 16)                0         
 alMaxPooling2D)                                                 

 reshape (Reshape)           (None, 4, 4, 1)           0         

 conv2d_transpose (Conv2DTr  (None, 6, 6, 16)          160       
 anspose)                                                        

 conv2d_transpose_1 (Conv2D  (None, 8, 8, 32)          4640      
 Transpose)                                                      

 up_sampling2d (UpSampling2  (None, 24, 24, 32)        0         
 D)                                                              

 conv2d_transpose_2 (Conv2D  (None, 26, 26, 16)        4624      
 Transpose)                                                      

 conv2d_transpose_3 (Conv2D  (None, 28, 28, 1)         145       
 Transpose)                                                      

=================================================================
Total params: 28241 (110.32 KB)
Trainable params: 28241 (110.32 KB)
Non-trainable params: 0 (0.00 Byte)
_________________________________________________________________
Here, the decoding architecture is strictly symmetrical to the encoding architecture, so 
…
decoder = keras.Model(decoder_input, decoder_output, name="decoder")
decoder.summary()

autoencoder_input = keras.Input(shape=(28, 28, 1), name="img")
encoded_img = encoder(autoencoder_input)
decoded_img = decoder(encoded_img)
autoencoder = keras.Model(autoencoder_input, decoded_img, name="autoencoder")
autoencoder.summary()
Model: "encoder"
_________________________________________________________________
 Layer (type)                Output Shape              Param #   
=================================================================
 original_img (InputLayer)   [(None, 28, 28, 1)]       0         

 conv2d_4 (Conv2D)           (None, 26, 26, 16)        160       

 conv2d_5 (Conv2D)           (None, 24, 24, 32)        4640      

 max_pooling2d_1 (MaxPoolin  (None, 8, 8, 32)          0         
 g2D)                                                            

 conv2d_6 (Conv2D)           (None, 6, 6, 32)          9248      

 conv2d_7 (Conv2D)           (None, 4, 4, 16)          4624      

 global_max_pooling2d_1 (Gl  (None, 16)                0         
 obalMaxPooling2D)                                               

=================================================================
Total params: 18672 (72.94 KB)
Trainable params: 18672 (72.94 KB)
Non-trainable params: 0 (0.00 Byte)
_________________________________________________________________
Model: "decoder"
_________________________________________________________________
 Layer (type)                Output Shape              Param #   
=================================================================
 encoded_img (InputLayer)    [(None, 16)]              0         

 reshape_1 (Reshape)         (None, 4, 4, 1)           0         

 conv2d_transpose_4 (Conv2D  (None, 6, 6, 16)          160       
 Transpose)                                                      

 conv2d_transpose_5 (Conv2D  (None, 8, 8, 32)          4640      
 Transpose)                                                      

 up_sampling2d_1 (UpSamplin  (None, 24, 24, 32)        0         
 g2D)                                                            

 conv2d_transpose_6 (Conv2D  (None, 26, 26, 16)        4624      
 Transpose)                                                      

 conv2d_transpose_7 (Conv2D  (None, 28, 28, 1)         145       
 Transpose)                                                      

=================================================================
Total params: 9569 (37.38 KB)
Trainable params: 9569 (37.38 KB)
Non-trainable params: 0 (0.00 Byte)
_________________________________________________________________
Model: "autoencoder"
_________________________________________________________________
 Layer (type)                Output Shape              Param #   
=================================================================
 img (InputLayer)            [(None, 28, 28, 1)]       0         

 encoder (Functional)        (None, 16)                18672     

 decoder (Functional)        (None, 28, 28, 1)         9569      

=================================================================
Total params: 28241 (110.32 KB)
Trainable params: 28241 (110.32 KB)
Non-trainable params: 0 (0.00 Byte)
_________________________________________________________________
As you can see, the model can be nested: a model can contain sub-models (since a model is just like a layer). A common use case for model nesting is . For example, here's how to ensemble a set of models into a single model that averages their predictions:def get_model():
…
x = layers.Dense(256, activation="relu")(x)
x = layers.Dropout(0.5)(x)
outputs = layers.Dense(10)(x)

model = keras.Model(inputs, outputs, name="toy_resnet")
model.summary()
Model: "toy_resnet"
__________________________________________________________________________________________________
 Layer (type)                Output Shape                 Param #   Connected to                  
==================================================================================================
 img (InputLayer)            [(None, 32, 32, 3)]          0         []                            

 conv2d_8 (Conv2D)           (None, 30, 30, 32)           896       ['img[0][0]']                 

 conv2d_9 (Conv2D)           (None, 28, 28, 64)           18496     ['conv2d_8[0][0]']            

 max_pooling2d_2 (MaxPoolin  (None, 9, 9, 64)             0         ['conv2d_9[0][0]']            
 g2D)                                                                                             

 conv2d_10 (Conv2D)          (None, 9, 9, 64)             36928     ['max_pooling2d_2[0][0]']     

 conv2d_11 (Conv2D)          (None, 9, 9, 64)             36928     ['conv2d_10[0][0]']           

 add (Add)                   (None, 9, 9, 64)             0         ['conv2d_11[0][0]',           
                                                                     'max_pooling2d_2[0][0]']     

 conv2d_12 (Conv2D)          (None, 9, 9, 64)             36928     ['add[0][0]']                 

 conv2d_13 (Conv2D)          (None, 9, 9, 64)             36928     ['conv2d_12[0][0]']           

 add_1 (Add)                 (None, 9, 9, 64)             0         ['conv2d_13[0][0]',           
                                                                     'add[0][0]']                 

 conv2d_14 (Conv2D)          (None, 7, 7, 64)             36928     ['add_1[0][0]']               

 global_average_pooling2d (  (None, 64)                   0         ['conv2d_14[0][0]']           
 GlobalAveragePooling2D)                                                                          

 dense_6 (Dense)             (None, 256)                  16640     ['global_average_pooling2d[0][
                                                                    0]']                          

 dropout (Dropout)           (None, 256)                  0         ['dense_6[0][0]']             

 dense_7 (Dense)             (None, 10)                   2570      ['dropout[0][0]']             

==================================================================================================
Total params: 223242 (872.04 KB)
Trainable params: 223242 (872.04 KB)
Non-trainable params: 0 (0.00 Byte)
__________________________________________________________________________________________________
keras.utils.plot_model(model, "mini_resnet.png", show_shapes=True)
…
