…
(3, 3), strides=(2, 2), padding=\"same\"),\n        layers.LeakyReLU(alpha=0.2),\n        layers.Conv2D(128, (3, 3), strides=(2, 2), padding=\"same\"),\n        layers.LeakyReLU(alpha=0.2),\n        layers.GlobalMaxPooling2D(),\n        layers.Dense(1),\n    ],\n    name=\"discriminator\",\n)\ndiscriminator.summary()\n</code></pre><pre><code>Model: \"discriminator\"\n_________________________________________________________________\n Layer (type)                Output Shape              Param #   \n=================================================================\n conv2d (Conv2D)             (None, 14, 14, 64)        640       \n\n leaky_re_lu (LeakyReLU)     (None, 14, 14, 64)        0         \n\n conv2d_1 (Conv2D)           (None, 7, 7, 128)         73856     \n\n leaky_re_lu_1 (LeakyReLU)   (None, 7, 7, 128)         0         \n\n global_max_pooling2d (Glob  (None, 128)               0         \n alMaxPooling2D)                                                 \n\n dense_4 (Dense)             (None, 1)                 129       \n\n=================================================================\nTotal params: 74625 (291.50 KB)\nTrainable params: 74625 (291.50 KB)\nNon-trainable params: 0 (0.00 Byte)\n_________________________________________________________________\n</code></pre><p>Then let's create a generator network, that turns latent vectors into outputs of shape&nbsp;&nbsp;(representing MNIST digits):</p><p
…
s.UpSampling2D(3)(x)\nx = layers.Conv2DTranspose(16, 3, activation=\"relu\")(x)\ndecoder_output = layers.Conv2DTranspose(1, 3, activation=\"relu\")(x)\n\nautoencoder = keras.Model(encoder_input, decoder_output, name=\"autoencoder\")\nautoencoder.summary()\n</code></pre><pre><code>Model: \"encoder\"\n_________________________________________________________________\n Layer (type)                Output Shape              Param #   \n=================================================================\n img (InputLayer)            [(None, 28, 28, 1)]       0         \n\n conv2d (Conv2D)             (None, 26, 26, 16)        160       \n\n conv2d_1 (Conv2D)           (None, 24, 24, 32)        4640      \n\n max_pooling2d (MaxPooling2  (None, 8, 8, 32)          0         \n D)                                                              \n\n conv2d_2 (Conv2D)           (None, 6, 6, 32)          9248      \n\n conv2d_3 (Conv2D)           (None, 4, 4, 16)          4624      \n\n global_max_pooling2d (Glob  (None, 16)                0         \n alMaxPooling2D)                                                 \n\n=================================================================\nTotal params: 18672 (72.94 KB)\nTrainable params: 18672 (72.94 KB)\nNon-trainable params: 0 (0.00 Byte)\n_________________________________________________________________\nModel: \"autoencoder\"\n_________________________________________________________________\n Layer (type)                Output Shape              Param #   \n=================================================================\n img (InputLayer)            [(None, 28, 28, 1)]       0         \n\n conv2d (Conv2D)             (None, 26, 26, 16)        160       \n\n conv2d_1 (Conv2D)           (None, 24, 24, 32)        4640      \n\n max_pooling2d (MaxPooling2  (None, 8, 8, 32)          0         \n D)                                                              \n\n conv2d_2 (Conv2D)           (None, 6, 6, 32)          9248      \n\n conv2d_3 (Conv2D)           (None, 4, 4, 16)          4624      \n\n global_max_pooling2d (Glob  (None, 16)                0         \n alMaxPooling2D)                                                 \n\n reshape (Reshape)           (None, 4, 4, 1)           0         \n\n conv2d_transpose (Conv2DTr  (None, 6, 6, 16)          160       \n anspose)                                                        \n\n conv2d_transpose_1 (Conv2D  (None, 8, 8, 32)          4640      \n Transpose)                                                      \n\n up_sampling2d (UpSampling2  (None, 24, 24, 32)        0         \n D)                                                              \n\n conv2d_transpose_2 (Conv2D  (None, 26, 26, 16)        4624      \n Transpose)                                                      \n\n conv2d_transpose_3 (Conv2D  (None, 28, 28, 1)         145       \n Transpose)                                                      \n\n=================================================================\nTotal params: 28241 (110.32 KB)\nTrainable params: 28241 (110.32 KB)\nNon-trainable params: 0 (0.00 Byte)\n_________________________________________________________________\n</code></pre><p>Here, the decoding architecture is strictly symmetrical to the en
…
ary()\n\nautoencoder_input = keras.Input(shape=(28, 28, 1), name=\"img\")\nencoded_img = encoder(autoencoder_input)\ndecoded_img = decoder(encoded_img)\nautoencoder = keras.Model(autoencoder_input, decoded_img, name=\"autoencoder\")\nautoencoder.summary()\n</code></pre><pre><code>Model: \"encoder\"\n_________________________________________________________________\n Layer (type)                Output Shape              Param #   \n=================================================================\n original_img (InputLayer)   [(None, 28, 28, 1)]       0         \n\n conv2d_4 (Conv2D)           (None, 26, 26, 16)        160       \n\n conv2d_5 (Conv2D)           (None, 24, 24, 32)        4640      \n\n max_pooling2d_1 (MaxPoolin  (None, 8, 8, 32)          0         \n g2D)                                                            \n\n conv2d_6 (Conv2D)           (None, 6, 6, 32)          9248      \n\n conv2d_7 (Conv2D)           (None, 4, 4, 16)          4624      \n\n global_max_pooling2d_1 (Gl  (None, 16)                0         \n obalMaxPooling2D)                                               \n\n=================================================================\nTotal params: 18672 (72.94 KB)\nTrainable params: 18672 (72.94 KB)\nNon-trainable params: 0 (0.00 Byte)\n_________________________________________________________________\nModel: \"decoder\"\n_________________________________________________________________\n Layer (type)                Output Shape              Param #   \n=================================================================\n encoded_img (InputLayer)    [(None, 16)]              0         \n\n reshape_1 (Reshape)         (None, 4, 4, 1)           0         \n\n conv2d_transpose_4 (Conv2D  (None, 6, 6, 16)          160       \n Transpose)                                                      \n\n conv2d_transpose_5 (Conv2D  (None, 8, 8, 32)          4640      \n Transpose)                                                      \n\n up_sampling2d_1 (UpSamplin  (None, 24, 24, 32)        0         \n g2D)                                                            \n\n conv2d_transpose_6 (Conv2D  (None, 26, 26, 16)        4624      \n Transpose)                                                      \n\n conv2d_transpose_7 (Conv2D  (None, 28, 28, 1)         145       \n Transpose)                                                      \n\n=================================================================\nTotal params: 9569 (37.38 KB)\nTrainable params: 9569 (37.38 KB)\nNon-trainable params: 0 (0.00 Byte)\n_________________________________________________________________\nModel: \"autoencoder\"\n_________________________________________________________________\n Layer (type)                Output Shape              Param #   \n=================================================================\n img (InputLayer)            [(None, 28, 28, 1)]       0         \n\n encoder (Functional)        (None, 16)                18672     \n\n decoder (Functional)        (None, 28, 28, 1)         9569      \n\n=================================================================\nTotal params: 28241 (110.32 KB)\nTrainable params: 28241 (110.32 KB)\nNon-trainable params: 0 (0.00 Byte)\n_________________________________________________________________\n</code></pre><p>As you can see, the model can be nested: a model can contain sub-models (since a model is just like a layer). A common use case for m
…
out(0.5)(x)\noutputs = layers.Dense(10)(x)\n\nmodel = keras.Model(inputs, outputs, name=\"toy_resnet\")\nmodel.summary()\n</code></pre><pre><code>Model: \"toy_resnet\"\n__________________________________________________________________________________________________\n Layer (type)                Output Shape                 Param #   Connected to                  \n==================================================================================================\n img (InputLayer)            [(None, 32, 32, 3)]          0         []                            \n\n conv2d_8 (Conv2D)           (None, 30, 30, 32)           896       ['img[0][0]']                 \n\n conv2d_9 (Conv2D)           (None, 28, 28, 64)           18496     ['conv2d_8[0][0]']            \n\n max_pooling2d_2 (MaxPoolin  (None, 9, 9, 64)             0         ['conv2d_9[0][0]']            \n g2D)                                                                                             \n\n conv2d_10 (Conv2D)          (None, 9, 9, 64)             36928     ['max_pooling2d_2[0][0]']     \n\n conv2d_11 (Conv2D)          (None, 9, 9, 64)             36928     ['conv2d_10[0][0]']           \n\n add (Add)                   (None, 9, 9, 64)             0         ['conv2d_11[0][0]',           \n                                                                     'max_pooling2d_2[0][0]']     \n\n conv2d_12 (Conv2D)          (None, 9, 9, 64)             36928     ['add[0][0]']                 \n\n conv2d_13 (Conv2D)          (None, 9, 9, 64)             36928     ['conv2d_12[0][0]']           \n\n add_1 (Add)                 (None, 9, 9, 64)             0         ['conv2d_13[0][0]',           \n                                                                     'add[0][0]']                 \n\n conv2d_14 (Conv2D)          (None, 7, 7, 64)             36928     ['add_1[0][0]']               \n\n global_average_pooling2d (  (None, 64)                   0         ['conv2d_14[0][0]']           \n GlobalAveragePooling2D)                                                                          \n\n dense_6 (Dense)             (None, 256)                  16640     ['global_average_pooling2d[0][\n                                                                    0]']                          \n\n dropout (Dropout)           (None, 256)                  0         ['dense_6[0][0]']             \n\n dense_7 (Dense)             (None, 10)                   2570      ['dropout[0][0]']             \n\n==================================================================================================\nTotal params: 223242 (872.04 KB)\nTrainable params: 223242 (872.04 KB)\nNon-trainable params: 0 (0.00 Byte)\n__________________________________________________________________________________________________\n</code></pre><pre><code>keras.utils.plot_model(mode
…
